data.pth (torch, 4991 bytes, 6 tensors)

l1.weight f4 [8, 54]
0	0xbe42ef45	-0.19036587
1	0xbea277b9	-0.31731966
2	0xbdd38f12	-0.10330023
3	0x3e141bf6	0.14463791
4	0x3e862c53	0.26205692
5	0xbf02055c	-0.5078943
6	0xbe464377	-0.19361673
7	0xbe02b984	-0.12766081
8	0xbee283c4	-0.44241154
9	0xbe0a178c	-0.13485545
10	0x3ef19aff	0.47188565
11	0x3e0a5f5e	0.13512942
12	0x3e763cca	0.24046627
13	0xbc42e6c4	-0.011895839
14	0xbe16abad	-0.14713927
15	0x3d045de6	0.03231611
16	0x3ec06265	0.3757507
17	0xbf01f7d5	-0.50768787
18	0x3efc25a1	0.4924746
19	0x3f19764f	0.5994615
20	0xbe8b9568	-0.27262425
21	0x3f29bd5c	0.66304564
22	0x3ecf4978	0.4048574
23	0x3e995393	0.29946575
24	0x3d9e3b13	0.07726111
25	0x3ec224d5	0.37918726
26	0x3eca4061	0.39502242
27	0xbe5e37a0	-0.21700907
28	0x3e7de5ab	0.24794643
29	0xbeabd585	-0.3356134
30	0xbecea81a	-0.40362626
31	0x3dbf6261	0.09344936
32	0xbcf0e1bc	-0.029404514
33	0xbe86e025	-0.26342884
34	0xbe161ba5	-0.14658983
35	0x3e2a23c0	0.166152
36	0x3e46f95c	0.1943106
37	0xbee5ef3f	-0.44909093
38	0xbe0e5621	-0.13900043
39	0xbe1b49eb	-0.15164916
40	0xbe675611	-0.22591425
41	0x3f13a617	0.5767531
42	0x3dd26fbc	0.10275218
43	0xbd85cf44	-0.065336734
44	0xbba33ab6	-0.004981364
45	0xbe18b7b1	-0.14913823
46	0xbf1e7fbb	-0.6191365
47	0xbd341121	-0.043961648
48	0x3e31cbfc	0.1736297
49	0x3f13b12d	0.57692224
50	0x3e04d5ef	0.12972234
51	0x3ee0b063	0.43884572
52	0xbdd106df	-0.10206389
53	0x3df98c04	0.12184909
54	0x3eac92b1	0.33705667
55	0xbe6a005b	-0.22851698
56	0x3f1881d3	0.59573096
57	0x3e4474f8	0.19185245
58	0x3f01bcfa	0.5067898
59	0xbeee041c	-0.4648751
60	0x3e9c178c	0.30486715
61	0x3f23e5e4	0.6402266
62	0x3f099dcf	0.5375642
63	0x3ecce1a5	0.40015903
64	0x3ea50b17	0.32235023
65	0xbc39c9b6	-0.011339596
66	0x3e67e25c	0.22644943
67	0x3b3d9102	0.0028925543
68	0xbe233711	-0.15938975
69	0x3da6344b	0.08115443
70	0x3eb23848	0.34808564
71	0xbeeda099	-0.4641159
72	0x3d654dfd	0.05598258
73	0x3eefc56c	0.46830308
74	0x3e3c8a70	0.18412185
75	0x3f1d887a	0.6153637
76	0x3f26de3b	0.65182847
77	0x3ea91b33	0.33028564
78	0x3e5a9510	0.21345925
79	0x3ecf9732	0.4054504
80	0xbdd0750a	-0.101785734
81	0xbeaaab8b	-0.33334002
82	0xbe41d3f9	-0.18928517
83	0xbee17dd2	-0.44041306
84	0xbeaa2690	-0.33232546
85	0x3d422289	0.047396217
86	0x3e56578e	0.20931837
87	0x3efc0f7b	0.4923056
88	0xbe413233	-0.18866806
89	0xbd72c456	-0.05926927
90	0xbc323e64	-0.010879133
91	0x3f076785	0.52892333
92	0x3ef4587a	0.47723752
93	0x3eb1f52a	0.34757358
94	0xbedae180	-0.42750168
95	0xbce25fd3	-0.027633583
96	0xbe0b27bd	-0.13589378
97	0xbdcdfffd	-0.100585915
98	0x3e8b2684	0.27177823
99	0xbd82379f	-0.06358265
100	0x3c1fc22d	0.009750885
101	0x3db94c27	0.09047728
102	0x3e5e6fe9	0.21722378
103	0xbe634f2d	-0.22198172
104	0xbd91da23	-0.071216844
105	0x3d0b54d9	0.034016464
106	0x3ea994d4	0.3312136
107	0x3ec14ee7	0.3775551
108	0x3f516cdd	0.8180674
109	0xbdb2aed3	-0.08724751
110	0xbf142529	-0.578692
111	0x3e871f5f	0.26391122
112	0x3eafaeef	0.3431315
113	0xbf1a80e8	-0.60352945
114	0xbda13faa	-0.07873471
115	0xbebbecf4	-0.36704218
116	0xbf2aac93	-0.6666958
117	0xbee5e008	-0.44897485
118	0x3f283c5f	0.6571712
119	0xbe3016f2	-0.17196253
120	0x3d51371f	0.05107796
121	0xbd533ed6	-0.051573597
122	0xbe8ceebf	-0.275259
123	0xbdbae68a	-0.09126003
124	0x3f03a5f3	0.51425093
125	0xbf1a847c	-0.60358405
126	0x3f23d638	0.63998747
127	0x3f5d8599	0.8653198
128	0x3f4df939	0.8045841
129	0x3f498104	0.7871249
130	0x3f50da6a	0.81583273
131	0x3e19427b	0.14966767
132	0xbc892525	-0.016741345
133	0x3eccae39	0.3997667
134	0x3f2f65c3	0.6851465
135	0xbed27454	-0.41104376
136	0x3efa4471	0.48880342
137	0xbebef036	-0.3729264
138	0xbeeae008	-0.45874047
139	0x3a89f215	0.0010524417
140	0x3f3c1ade	0.73478496
141	0xbed7203e	-0.42016786
142	0xbdab6a03	-0.083698295
143	0xbc01bf49	-0.007919141
144	0x3eb77f2a	0.35839206
145	0xbf203de1	-0.6259442
146	0xbdd08e7f	-0.10183429
147	0xbe6facfd	-0.23405834
148	0xbed8d25b	-0.42347988
149	0x3f4f069b	0.80869454
150	0xbd4b2e1c	-0.04960452
151	0xbe003686	-0.12520799
152	0xbe3b176f	-0.18270658
153	0xbdf67e4f	-0.1203581
154	0x3fb820f8	1.4385061
155	0x3f3351cf	0.70046705
156	0x3f1754ed	0.5911396
157	0x3f47a2cf	0.779828
158	0xbd50d3a5	-0.05098309
159	0x3f0713e7	0.52764744
160	0xbe316983	-0.17325406
161	0x3eb02e5d	0.34410372
162	0x3f341b89	0.70354515
163	0x3f459a4b	0.7718856
164	0x3dafce18	0.08584231
165	0xbd63e3d8	-0.05563721
166	0xbe9e5ac6	-0.3092863
167	0xbe909ed4	-0.28246176
168	0x3ebe03e6	0.3711235
169	0x3d70b75b	0.05876861
170	0x3e771de3	0.24132495
171	0x3d404fc6	0.046951078
172	0xbe723ba7	-0.23655568
173	0x3f2d4e6b	0.6769778
174	0x3ea94253	0.33058414
175	0x3f41d1ee	0.7571095
176	0x3f2a6f9b	0.66576546
177	0x3ebeb343	0.3724614
178	0xbe2836fa	-0.16427222
179	0xbe92e01e	-0.28686613
180	0xbe7d506c	-0.2473771
181	0xbed09853	-0.40741214
182	0x3f24ad92	0.6432735
183	0xbed5e753	-0.4177805
184	0xbed5cb8e	-0.41756862
185	0xbd92a245	-0.07159857
186	0x3ef82a04	0.48469555
187	0xbe83c38d	-0.2573513
188	0xbec5ae5b	-0.38609585
189	0x3f32a4b3	0.6978256
190	0x3d7ecd20	0.06220734
191	0x3f266a3e	0.6500586
192	0xbe57441e	-0.21022078
193	0x3f1a5972	0.6029273
194	0x3eaecf67	0.3414261
195	0x3d055225	0.032549042
196	0x3f1b92d2	0.60770905
197	0x3e8c4759	0.27398184
198	0x3bc8b560	0.006125137
199	0x3e9120c7	0.2834532
200	0x3e73a6c8	0.23794091
201	0x3df6345f	0.12021708
202	0xbe69f603	-0.22847752
203	0xbeacc116	-0.33741063
204	0x3ebd3e42	0.3696156
205	0x3efc2bfb	0.49252304
206	0x3f143c80	0.57904816
207	0x3f173c3e	0.590763
208	0x3f8ec61d	1.1154209
209	0x3f125f89	0.57177025
210	0xbdd69c31	-0.1047901
211	0xbee04c31	-0.4380813
212	0x3edd8bdd	0.4327077
213	0xbe84139a	-0.25796205
214	0x3e0da0f0	0.13830924
215	0x3e702d42	0.23454764
216	0xbe081147	-0.13287841
217	0xbe5f17b2	-0.21786383
218	0x3c51d711	0.0128076235
219	0x3e2fb2c3	0.17158036
220	0x3e4f956b	0.20271842
221	0x3f8f16b8	1.1178808
222	0x3db35169	0.08755762
223	0xbd5a0a16	-0.053232275
224	0xbe04c026	-0.12963924
225	0xbda91bdf	-0.08257269
226	0x3e75164a	0.23934284
227	0x3f052dee	0.5202321
228	0x3e9e6ace	0.3094086
229	0x3ebdfdd4	0.37107718
230	0xbe33ced3	-0.17559366
231	0x3ed70928	0.41999173
232	0x3dd206d9	0.10255212
233	0x3f8689dd	1.0510823
234	0x3e8f5dc6	0.2800123
235	0x3dc7bbdd	0.09752629
236	0xbe991c9c	-0.2990464
237	0x3d920f43	0.07131817
238	0x3d6626a2	0.056189187
239	0x3f20176c	0.6253574
240	0x3eb4bd4f	0.3530068
241	0x3dc73a79	0.0972795
242	0x3e9ca66a	0.30595714
243	0xbdd24b3c	-0.10268256
244	0xbcf1cb93	-0.029516017
245	0x3d021d1e	0.03176605
246	0x3f86d183	1.0532688
247	0x3f2222de	0.63334453
248	0xbde5a3b7	-0.11212867
249	0xbe0cff15	-0.13769181
250	0xbddb0163	-0.10693624
251	0x3ebc3ba0	0.3676424
252	0xbc047333	-0.008084106
253	0xbe2b1abe	-0.1670942
254	0x3da38541	0.079844005
255	0xbdd65786	-0.104659125

l1.bias f4 [8]
0	0x3f01ee29	0.5075403
1	0x3f222f8f	0.6335382
2	0x3f1a82b2	0.60355675
3	0x3ed5db6e	0.41768974
4	0x3f539872	0.8265449
5	0x3ec08323	0.3760005
6	0x3e812ae8	0.25228047
7	0x3f55396f	0.8329076

l2.weight f4 [8, 8]
0	0xbe615f1c	-0.22008938
1	0x3ebf5d17	0.3737571
2	0x3e55b5a1	0.20870067
3	0x3fa43dab	1.283132
4	0x3e04a11e	0.12952086
5	0x3f948df2	1.1605818
6	0x3fb9dc08	1.4520273
7	0xbe74c770	-0.23904204
8	0xbe9de9ed	-0.30842534
9	0x3f867c4b	1.0506681
10	0x3ecbbeca	0.39793998
11	0x3e98efc2	0.2987042
12	0xbf326a36	-0.69693315
13	0xbdce9040	-0.10086107
14	0xbeb3fc61	-0.35153487
15	0x3f91db0b	1.1394972
16	0x3eba2615	0.3635718
17	0x3f3f11f0	0.74636745
18	0xbf0fc55f	-0.5616054
19	0xbe54d9f8	-0.20786273
20	0x3fc199ff	1.5125121
21	0xbef5bd1c	-0.47995842
22	0xbec003ef	-0.37503
23	0x3f851dda	1.0399735
24	0xbf97eea9	-1.1869708
25	0x3eca37c5	0.39495674
26	0xbe44a5f9	-0.19203939
27	0x3f1dbc7c	0.6161573
28	0xbf6a509b	-0.91529244
29	0x3f82fa6f	1.0232676
30	0x3eb55526	0.35416526
31	0x3f221afa	0.6332241
32	0x3fab0a76	1.3362567
33	0x3f878a01	1.058899
34	0x3e0be791	0.13662554
35	0xbf465fb3	-0.77489775
36	0xbd0ebd49	-0.034848485
37	0x3ed0463f	0.40678594
38	0x3eda754e	0.4266762
39	0x3f894554	1.0724282
40	0xbeac08c9	-0.33600453
41	0xbcf86510	-0.030321628
42	0xbe2b0d85	-0.16704376
43	0x3d4880a0	0.04895079
44	0xbe8a4491	-0.27005437
45	0xbe889431	-0.2667556
46	0x3e1e58ae	0.15463516
47	0xbe530f6e	-0.20611355
48	0x3faade89	1.3349162
49	0x3f36d212	0.7141429
50	0x3fd895c9	1.6920711
51	0x3dfcb06f	0.123383395
52	0xbebc6e6b	-0.36802992
53	0x3f246d81	0.6422959
54	0xbf560464	-0.8360045
55	0x3eb30f57	0.3497264
56	0x3de4dae0	0.111745596
57	0x3e94f6ed	0.2909464
58	0xbe9a2b08	-0.30110955
59	0xbe696a01	-0.22794344
60	0xbe0123fb	-0.12611382
61	0xbd7a2258	-0.06106791
62	0xbe27d2ca	-0.16389003
63	0xbeb3f3da	-0.3514698

l2.bias f4 [8]
0	0x3cbe10ee	0.023201432
1	0x3eeeaff9	0.4661863
2	0x3f455fe3	0.77099437
3	0x3e791df2	0.2432783
4	0xbf19e638	-0.6011691
5	0xbe10f6c6	-0.14156637
6	0x3ed83613	0.42228755
7	0xbe1b592a	-0.15170732

l3.weight f4 [7, 8]
0	0x3f368f73	0.71312636
1	0xbf30b4f4	-0.6902611
2	0xbf12f7be	-0.57409275
3	0xbfa5edd0	-1.29632
4	0xbeacd9eb	-0.33760008
5	0x3eb08db3	0.34483108
6	0xbf5e7166	-0.8689178
7	0xbe28722d	-0.16449805
8	0x3f00b13e	0.5027045
9	0xbf865340	-1.0494156
10	0xbfc98df7	-1.5746449
11	0x3f38d493	0.7219936
12	0xbfacd044	-1.3501058
13	0x3d1b8e90	0.037977755
14	0xbf173571	-0.5906592
15	0xbb8a6e00	-0.004224539
16	0xbf7722f2	-0.965377
17	0xbf1cd99f	-0.61269563
18	0x3f9c62b1	1.2217618
19	0xbed6efd1	-0.4197984
20	0xbfa033e7	-1.2515839
21	0x3cde1cb0	0.027113289
22	0xbcda655a	-0.026659656
23	0xbe35af2f	-0.17742608
24	0xbfab7a70	-1.339674
25	0x3f10b3d3	0.5652439
26	0x3cc1c699	0.023654269
27	0xbf96b7da	-1.1774857
28	0x3f0e116a	0.5549532
29	0x3e9eb6f3	0.30998954
30	0x3f09d4a5	0.53840095
31	0xbdfae5c8	-0.122508585
32	0x3d59cf7b	0.053176384
33	0xbf9298b7	-1.1452855
34	0xbfa4e37b	-1.2881922
35	0xbf49ce2f	-0.78830236
36	0x3f0b80b5	0.54493266
37	0xbe859662	-0.26091295
38	0x3ef1d814	0.47235167
39	0xbd1e50b8	-0.0386512
40	0xbe27639a	-0.16346589
41	0x3ec8cdae	0.3921942
42	0xbf04d4e4	-0.51887345
43	0x3eed67ed	0.46368352
44	0x3e73641a	0.23768654
45	0xbeb4748e	-0.35245174
46	0xbecf78f0	-0.40521955
47	0x3d57c528	0.052678257
48	0xbc7b06db	-0.015321459
49	0x3f038994	0.513818
50	0xbfda4180	-1.7051239
51	0x3ea67763	0.3251296
52	0xbf4e8559	-0.8067222
53	0xbe26c9c8	-0.16287911
54	0x3f1b2f8b	0.6061942
55	0x3e14802e	0.14502022

l3.bias f4 [7]
0	0x3e6df0a0	0.23236322
1	0xbe3b064c	-0.18264121
2	0x3e9b6374	0.30349314
3	0xbe1b3a14	-0.15158874
4	0xbe3eb736	-0.18624577
5	0xbf112618	-0.5669875
6	0xbe0911b1	-0.13385655
